better-DPD-0630/DPD_S_0_M_DGRU_H_15_F_200_P_1319.pt (torch, 8812 bytes, 8 tensors)

backbone.rnn.weight_ih_l0 f4 [45, 6]
000000 9c 8f 09 3f 0e c1 7c bd ff fa e0 3e 53 71 04 3f
       0.53734756 -0.06170755 0.43941495 0.5173542
000010 90 81 30 3e 64 73 f3 be a3 f6 e9 3e 04 0e f2 3e
       0.17236924 -0.47548974 0.4569598 0.47276318
000020 a8 13 06 3e da b4 27 bd f9 59 a2 be e3 a7 e1 3d
       0.13093436 -0.040943958 -0.3170927 0.1101835
000030 6c c2 4f be ab cf fa 3e 7a d0 05 bf b7 5d fc 3d
       -0.2028901 0.48986563 -0.52271235 0.12322562
000040 a7 85 9d bc 34 f2 03 bc 83 22 d9 bd a4 51 36 3e
       -0.01922877 -0.008053351 -0.10602286 0.17804581
000050 da b3 ec be 06 39 cd 3d d3 64 d1 be 0e 5e fc 3d
       -0.46230966 0.10020642 -0.40897235 0.12322627
000060 04 fb 37 bd 0e 4e e1 3d 01 87 8c 3e f7 0e 69 be
       -0.04491712 0.11001216 0.2744675 -0.22759615
000070 93 fc c1 be 3f a1 85 be 3e 02 ee 3e e8 76 ee be
       -0.3788801 -0.26099584 0.46486086 -0.46575093
000080 57 aa 9c 3e 28 4c 62 be 70 74 8a bb 3a 26 7f 3e
       0.3059871 -0.22099364 -0.004225306 0.24916926
000090 c8 13 31 be c5 bc c9 be 7c ae 54 3e d5 f3 b6 3e
       -0.17292702 -0.39401832 0.20769686 0.35732904
0000a0 0a 87 33 3e c3 73 64 bc 42 00 da 3c a3 84 90 3e
       0.17531982 -0.013943615 0.026611451 0.28226194
0000b0 21 c7 3b 3e 9c af 88 be 27 45 d4 3e 58 93 c9 bd
       0.1833768 -0.2669648 0.4145901 -0.09842557
0000c0 63 de 33 be bf d2 0f be 3e e9 e9 3d 6e ae 6a be
       -0.17565303 -0.14045237 0.114214405 -0.22918102
0000d0 e5 ba b8 be 0e bb a9 3e d9 96 cb 3e 13 e2 0e bf
       -0.3608009 0.33150524 0.39763525 -0.5581371
0000e0 d5 e8 dc 3e ee a1 9f be 18 6f c5 3d 25 3c e9 3e
       0.43146387 -0.3117823 0.0964033 0.455537
0000f0 45 ed a6 be 8b 2e 4d be 3e a6 38 3e 19 42 9b be
       -0.32602897 -0.20037286 0.18032166 -0.30323866
000100 43 5a 34 be cb 1d de be d3 89 61 3d 41 39 b8 3e
       -0.17612557 -0.43382105 0.05506308 0.3598118
000110 10 9a 4c 3e 40 df f2 bc b6 cb 08 3f c4 f3 d2 3e
       0.19980645 -0.02964747 0.5343584 0.41201603
000120 b9 9f 94 be 4c d6 8e 3e 87 02 0c be af e5 1f 3e
       -0.2902811 0.2789787 -0.13672839 0.15614961
000130 85 98 ea 3c c9 d9 6d 3e 49 f4 85 be 60 92 64 be
       0.02863718 0.2322761 -0.26162937 -0.22321463
000140 c3 71 ad be 07 93 c1 be 4e a5 4a be 61 64 03 3e
       -0.33875856 -0.37807485 -0.19789621 0.1283126
000150 7b 32 31 3e b3 18 a7 3d 82 df db 3e 2d 85 e0 3e
       0.17304413 0.08159008 0.4294396 0.43851605
000160 60 9f d0 3e 0e 46 b7 3e 01 17 09 bd 82 43 c5 3d
       0.40746593 0.35795635 -0.033469204 0.09632017
000170 c5 db 82 be b8 59 db 3c f4 c7 d4 3b cc b1 ee be
       -0.25558296 0.02677618 0.006493563 -0.46620023
000180 bb 29 d0 3e b4 ea e3 bd 84 4b d1 3e 64 ae 6b 3e
       0.40656838 -0.111287504 0.40877926 0.23015743
000190 1d dc 8b be 39 87 06 3e 31 66 46 be e7 63 9c be
       -0.2731637 0.13137521 -0.1937492 -0.3054497
0001a0 52 b9 63 3e f4 62 9a 3e e5 9d b0 be 66 65 60 be
       0.22238663 0.3015362 -0.34495464 -0.2191368
0001b0 d8 35 b8 3e de 90 35 be 1c ee c4 be c2 83 05 bf
       0.3597858 -0.17731044 -0.38462913 -0.5215417
0001c0 75 88 a9 3e 1c 45 a4 3e e7 62 fe 3e e6 fe c9 be
       0.3311192 0.32083976 0.49684832 -0.39452285
0001d0 d3 e8 a7 3c ad e1 73 3d 42 a0 35 3d ad d9 93 3d
       0.020496761 0.059541393 0.044342287 0.07219253
0001e0 18 a5 e9 be 2f 13 08 bf ba ee 70 be c8 8b 27 3b
       -0.4563377 -0.5315427 -0.23528567 0.0025565494
0001f0 53 13 86 3c bb 97 c6 bd 16 a6 13 bf 0f 4d c0 3e
       0.016366636 -0.09696909 -0.576753 0.3755879
000200 12 f8 cf be 27 ff b6 3d 27 30 b0 be 3a f4 ad 3e
       -0.4061895 0.08935385 -0.34411737 0.33975393
000210 d8 5c bc 3e 38 52 63 be e7 47 d3 3e 50 6c 4c be
       0.36789584 -0.22199333 0.41265795 -0.19963193
000220 c7 e0 ec be 20 ec 17 be 8f 55 db be 73 82 01 3e
       -0.46265242 -0.14836168 -0.42838714 0.12647419
000230 25 62 eb 3d cb bd 5d be 72 5b 0a be 4e 7e 06 3e
       0.11493329 -0.21654432 -0.13511446 0.13134119
000240 ae 3e 91 be f9 c9 48 3e 8c cd d4 be 67 a8 95 3e
       -0.28368133 0.19608296 -0.4156307 0.29230043
000250 f2 6f 8d be 77 71 db be b6 fb 02 3e 40 7a 0e 3d
       -0.2762447 -0.42860004 0.12791333 0.034784555
000260 5c 91 bb be e0 f1 fd 3e 13 b2 5e be 66 c2 bf 3e
       -0.36634338 0.49598598 -0.21747617 0.37453002
000270 7b 01 1d be fc 83 c2 3e 95 72 73 be 2b c8 b1 be
       -0.15332596 0.3799132 -0.23774178 -0.3472303
000280 62 8c cc be 27 93 94 be 8e 26 6c be 01 f0 82 3e
       -0.39950854 -0.29018518 -0.23061582 0.25573733
000290 5c 84 c8 be 46 34 f4 bd c3 07 f6 bd d3 56 0a be
       -0.39163482 -0.11924033 -0.12013199 -0.13509683
0002a0 70 07 4d bc 5d 54 8b 3e 87 c2 8a be c9 42 f2 be
       -0.01251398 0.27212802 -0.27101538 -0.47316578
0002b0 ce 6a b2 3e 74 d1 97 be 1e e5 a5 3e 7f d8 1b bc
       0.3484711 -0.29651988 0.32401365 -0.009512066
0002c0 13 1f e0 bd ae 6e e9 3e f3 f8 0e 3e de d5 07 bf
       -0.10943427 0.45592254 0.13962154 -0.5306071
0002d0 88 5d 04 bf e6 94 ea be bf 03 db be 4a d8 23 3e
       -0.5170522 -0.45816725 -0.42776296 0.16000476
0002e0 ce 7c 87 3e b4 f8 9c 3e 2c 69 ff be fb 74 b2 3e
       0.26462406 0.30658495 -0.49884927 0.34854874
0002f0 94 66 dd 3e 83 e5 29 3e 8d f3 2f be 0f 94 e2 be
       0.43242323 0.16591458 -0.17182751 -0.44253585
000300 0d 8b f9 3e b6 f4 bf 3c 57 4a e4 3d 44 19 ac 3b
       0.487389 0.023432117 0.11146992 0.0052520353
000310 d7 5d a3 3e 1a 32 0a bf a6 cf 65 3e 30 98 c2 be
       0.31907532 -0.539827 0.22442493 -0.38006735
000320 73 3b f2 3e ff 05 e3 be 36 16 1c be 6c e9 08 3e
       0.4731098 -0.44340512 -0.15242848 0.13370293
000330 d9 31 61 3e db cc 26 3e a8 b4 b0 3c be 84 19 3e
       0.21991672 0.16289084 0.021570519 0.14992043
000340 23 d4 c7 be d2 b4 ed 3c 09 49 2f 3e 3d 88 cb 3e
       -0.39029035 0.029016886 0.17117704 0.3975238
000350 2a 16 f5 be 69 2f 82 be fe 88 c6 be c2 79 81 be
       -0.47868472 -0.25426796 -0.38776392 -0.25288206
000360 9b 0c 91 be e6 5c e8 bd a0 a0 55 3e 67 c3 75 bd
       -0.2832993 -0.11345844 0.20862055 -0.060000803
000370 4c b5 9f 3d ae 8b e0 bd 95 f8 05 bf a8 a9 ec 3d
       0.077982515 -0.10964142 -0.5233243 0.11555797
000380 0c 0c 08 3d 33 bf bc be 28 fd f6 be 52 b7 14 3e
       0.033214614 -0.36864623 -0.48240018 0.14523056
000390 b5 7b fa bd fa fe fa 3d f0 20 b0 bd 8d c3 d2 bd
       -0.122306265 0.12255664 -0.08600032 -0.102912046
0003a0 5f 82 46 be cd 64 09 3f 30 87 f8 be ce 68 28 be
       -0.1938567 0.53669435 -0.4854064 -0.1644623
0003b0 f6 cd 1a be e1 0b 40 be 8f 84 73 3e 40 f5 ec 3e
       -0.1511763 -0.18754531 0.23781036 0.4628086
0003c0 64 be de 3e 22 72 8b be 06 1e 83 be f6 6d 41 3e
       0.43504632 -0.27235514 -0.25608844 0.18889603
0003d0 9e 85 87 3e a3 c7 e9 be 70 28 80 be f8 29 70 be
       0.2646913 -0.45660123 -0.2503085 -0.2345351
0003e0 eb 24 19 bc fc 68 18 be 6a 10 c9 be d0 40 c7 bd
       -0.009347181 -0.14883798 -0.39270335 -0.09729159
0003f0 ce bf ea bd 9e 3f 43 3c dd 0c 66 be 76 33 89 be
       -0.11462365 0.011917023 -0.22465844 -0.26797074

backbone.rnn.weight_hh_l0 f4 [45, 15]
000000 05 a6 73 3e 08 48 4c 3e 8d ca 29 bf 40 f6 6b be
       0.237938 0.19949353 -0.6632469 -0.23043156
000010 68 1d 2d 3e 74 dc f9 bd 36 a6 34 3d e0 6b 5f bd
       0.16905749 -0.12200251 0.044103824 -0.054546237
000020 fd 67 17 3e 65 ae 09 be a5 a9 2e 3d c9 00 0b 3f
       0.14785762 -0.13445432 0.042642254 0.54298073
000030 68 9e 0a be cf ef 33 3e bf 79 08 3e 36 2e b6 3e
       -0.1353699 0.17571948 0.13327692 0.3558213
000040 f9 1b 34 be 03 e8 27 bd 36 bd f8 3d d8 dc 83 3e
       -0.17588796 -0.040992748 0.12145464 0.25754428
000050 41 db 0a be e1 a7 9b be a6 3a 12 3e e4 2e 16 3e
       -0.13560201 -0.3040152 0.14280185 0.14666325
000060 be 67 1e 3f 96 39 b3 3e 6b 38 26 be 00 ec 1d 3d
       0.6187705 0.35004872 -0.16232459 0.038555145
000070 19 ff 72 be 47 f1 58 bd 09 79 83 be 1b 6d 76 be
       -0.23730125 -0.052964475 -0.2567828 -0.24065058
000080 fd f9 a9 bd a4 2b c7 3e 9c b3 a6 3e 39 29 87 be
       -0.082996346 0.38900483 0.32558906 -0.26398638
000090 bd a2 ef 3d 86 2c a6 3d c2 d6 dd 3e d6 b4 78 be
       0.11700962 0.08113961 0.4332791 -0.24287733
0000a0 58 de 79 be f3 8a 4b be 8a ab aa be 9f 2c 57 3d
       -0.24401224 -0.19877224 -0.33334 0.05253279
0000b0 17 08 87 3e 33 85 49 be 89 b7 59 3e 09 bf 2e be
       0.2637336 -0.19679718 0.2126142 -0.17065062
0000c0 7b da 88 3e a1 1d e6 3d 6a a7 34 3f 72 f9 74 be
       0.26729187 0.1123612 0.70567954 -0.23923281
0000d0 dc 69 eb 3a c4 10 c6 3e 77 67 9b bd 7e 2f fe 3d
       0.0017960626 0.38684666 -0.07588094 0.12411402
0000e0 9f 69 57 bd 80 3f e8 3d 25 50 22 3e 3d 71 e0 bd
       -0.052590962 0.11340237 0.15850885 -0.109590985
0000f0 b6 5d 53 be 6a 6e 6d 3e 5e 11 fe 3d 47 46 2f be
       -0.20641217 0.23186651 0.12405656 -0.17116652
000100 d0 70 db be d0 fd f6 3d 7f 5c 6e 3e 28 4a f3 3e
       -0.42859507 0.1206013 0.23277472 0.47517514
000110 01 0f 15 3e 11 79 49 3e 09 8d a2 3e 94 8f 66 3b
       0.14556505 0.1967509 0.31748226 0.0035180794
000120 a4 4c ee be 66 de 1f be 0d f0 ad 3d f8 ad f0 3e
       -0.46542847 -0.15612182 0.08493052 0.47007728
000130 1e 66 5d be 8e 09 6c be 5f 41 02 3f 30 3f b8 be
       -0.21620986 -0.2305052 0.50881 -0.35985708
000140 cc 28 20 3e b9 8e 60 be 6d f8 a3 3e 39 b1 ae be
       0.15640563 -0.21929444 0.3202547 -0.34119585
000150 9d 6d 7d be db 9c ba 3d fc c8 c7 bc 38 0c 5a be
       -0.24748845 0.09111949 -0.024387829 -0.21293724
000160 4e 4d 8b 3d 63 8c 63 3d 32 16 8a bd 91 22 22 bf
       0.06801854 0.055553805 -0.06742515 -0.63333994
000170 db 67 40 bd 4b e5 f1 be 6b 45 36 be 7d 38 1b 3e
       -0.046974044 -0.4724525 -0.17799918 0.15158267
000180 f3 9c ac be cc e0 08 3e 7a f8 10 3e 5d 5a ae bd
       -0.33713493 0.13367003 0.14157286 -0.08513329
000190 03 dd 17 be da 3a 0c bb 4d ac b6 3c 0c ba 05 be
       -0.14830403 -0.0021397383 0.022298956 -0.13059253
0001a0 03 b3 22 3e 7e 23 60 be 57 b1 13 3e de 1e 24 3d
       0.158886 -0.21888539 0.14423119 0.0400685
0001b0 ac a0 be 3d 70 52 c9 be 30 8f 0d bf 1c 12 a7 be
       0.093079895 -0.39320707 -0.5529661 -0.32631004
0001c0 ab 6a 9c 3d 97 26 8b 3e dc a1 ec bd 2d b3 34 3e
       0.07637533 0.2717788 -0.1155431 0.17646475
0001d0 b6 d2 47 3d 5e f5 92 3e 8c 54 cd 3e 60 ed be bc
       0.048784934 0.28702825 0.40103567 -0.023306549
0001e0 1a ac ce be 02 17 81 bb f4 b3 97 3d ca 3b 9c 3d
       -0.40365678 -0.0039395103 0.0740737 0.07628591
0001f0 06 60 b3 3e d5 e9 6b bd ca 13 b6 3b d3 9b df 3e
       0.35034198 -0.057596046 0.0055565583 0.43673572
000200 c6 0f b7 be a8 1b d7 bd 3a 23 97 3e b4 5a 71 3e
       -0.35754222 -0.10503322 0.29519063 0.23569757
000210 c0 16 b9 3e 6d 6a 7e be 2d d4 84 3e 11 b0 89 bc
       0.3615017 -0.24845286 0.25943127 -0.016807588
000220 41 6d f2 bd b6 71 3f 3d 40 dc f4 bd e0 f9 15 3e
       -0.11837245 0.046739303 -0.11956072 0.14646101
000230 06 82 55 3d a5 9d a5 bd fd b1 78 be de 4b 93 be
       0.052125953 -0.08086709 -0.24286647 -0.2876882
000240 9a ff 1c 3e 08 cb 93 3e 6e 8e 41 be 1d 54 76 be
       0.1533188 0.28865838 -0.18901989 -0.24055524
000250 b2 99 15 3f 73 89 fd 3e 73 e9 db 3d 83 d9 e3 bd
       0.58437645 0.49518928 0.10737886 -0.111254714
000260 b4 08 b3 3c 61 8e f5 bb 2d f8 14 be 91 ec 7d bd
       0.021854736 -0.0074937795 -0.14547797 -0.061993185
000270 13 1c 8a 3e c6 b0 dd be 23 9b e3 3d 0b a8 a0 be
       0.26974544 -0.4329893 0.11113574 -0.31378207
000280 bd 4c 22 3f cb 5c 3f be c4 aa fb 3d 71 f4 c7 be
       0.63398343 -0.18687741 0.1228843 -0.39053681
000290 c6 42 f9 3d 81 39 cb be ad ce bb bd c8 2d ee be
       0.12170939 -0.3969231 -0.0917028 -0.46519303
0002a0 53 00 4c be 92 5c 07 3e 54 3f 29 be 50 f9 c0 3d
       -0.19921999 0.13218907 -0.16528064 0.094225526
0002b0 60 04 6b 3c e1 c9 89 be 3b 81 ca bd cb bb 20 3e
       0.014344305 -0.26911834 -0.0988793 0.15696637
0002c0 7d 4f da be 5a 3a 86 bd 71 69 04 3e 85 ae 18 bf
       -0.4263877 -0.065540984 0.12930848 -0.59641296
0002d0 c4 3b 3a be e0 1e 89 3e d7 45 26 bd 7d b4 d0 ba
       -0.18186861 0.26781368 -0.04059395 -0.001592293
0002e0 dd ac 8f 3d 8a 90 1a be 05 32 1d bf a6 8a 87 be
       0.07015393 -0.150942 -0.6140445 -0.26472968
0002f0 d8 22 2f be f9 cf 02 be 8f 75 cc bc 91 2d 81 3d
       -0.17103136 -0.12774648 -0.0249584 0.06307519
000300 89 48 dc be 68 1c bf be c0 a6 ca 3c 63 6a 29 3e
       -0.4302409 -0.3732636 0.024737716 0.1654449
000310 40 e6 65 be 40 37 cc 3e e2 ed eb bd 98 ab 89 3e
       -0.22451115 0.39885902 -0.11519982 0.26888728
000320 a3 8d 5b 3d fc 84 1e be 27 3e b5 3d dd 38 f1 3d
       0.053601872 -0.15480417 0.08849745 0.11778424
000330 4e 5b 85 be 9a d0 b0 3e 77 bc a7 3e df 3d 86 be
       -0.26046222 0.3453415 0.32760975 -0.2621908
000340 1c cd 77 3e 9d 4f cd be 79 55 d0 be c7 81 a7 be
       0.24199337 -0.40099803 -0.4069021 -0.327162
000350 59 7c 88 bd e1 57 be 3e ff 21 56 be 12 ad d7 3c
       -0.066643424 0.3717642 -0.20911406 0.026327644
000360 1f 6a b2 3d f0 8e c0 be 1b c2 a9 bd 33 1d a0 3e
       0.08711647 -0.37609053 -0.08288976 0.31272277
000370 82 ac ba bc a2 d2 e6 3e bd 73 ef bd 71 05 3b 3d
       -0.022787336 0.45082575 -0.11691997 0.045659486
000380 31 4e 27 be e5 01 c8 3d ee dc 03 bf 57 9c 07 be
       -0.16338421 0.09765986 -0.51508987 -0.13243233
000390 5e be 28 be e9 3e 70 3e 69 78 37 bd 6c f8 14 3e
       -0.1647887 0.23461498 -0.044792566 0.1454789
0003a0 02 f8 cf bd 12 41 33 bc 42 9f 59 bd b3 9b 92 3e
       -0.101547256 -0.010940807 -0.053130396 0.28634414
0003b0 17 f7 6b be 73 f6 df be 28 fc f3 3e 3f da d5 3d
       -0.23043476 -0.43742713 0.47653317 0.10442018
0003c0 45 e2 03 3e 17 5b c2 bc 74 c7 12 3f d2 8a 5f 3e
       0.12879284 -0.023725076 0.5733559 0.218303
0003d0 b0 5d bd be 04 e7 03 be c4 4d a4 3e b2 3d b9 be
       -0.3698554 -0.12881094 0.3209058 -0.36179882
0003e0 a7 1c f7 3d b6 34 b4 3d 9f bd 28 3e 69 3a c3 3e
       0.12066012 0.08799116 0.16478585 0.381305
0003f0 b7 03 1d be 66 31 e9 3d fa fb 69 3e 54 c9 a4 be
       -0.15333448 0.11386375 0.22850028 -0.3218485

backbone.rnn.bias_ih_l0 f4 [45]
000000 b9 2d 5b 3d 9b 78 4a bd 65 3f d6 3c 82 50 7f 3c
       0.0535104 -0.049431425 0.026153276 0.015583159
000010 bd 41 09 bd 44 2d 05 bd 8d 8f c7 3c 18 9e 9f 3c
       -0.03350996 -0.03251387 0.024360443 0.019484565
000020 e9 4a a9 3c 4e 05 da 3b b6 70 c0 3c 55 13 63 3d
       0.020665603 0.0066534644 0.023491245 0.05543836
000030 3c b5 33 bc c6 0a 14 bd a0 0d 0b 3d 0d f9 60 3c
       -0.010968503 -0.036143087 0.03394854 0.013731253
000040 e8 d5 8a 3c d2 b1 4f 3d c2 2f 26 bc 0d 68 6e bd
       0.016947702 0.050706692 -0.010143222 -0.0582047
000050 44 60 96 3c ed 7e 5c bd c8 09 4a bd e9 b1 83 3a
       0.01835645 -0.053831983 -0.049325734 0.0010047528
000060 ab 41 a5 bc 08 dc f4 3c 3d 6b 41 3c 90 0e 55 bd
       -0.020172914 0.029890075 0.011805353 -0.05201584
000070 72 19 70 bd 7c a8 3a bd 62 c2 0b bd 5f cf 21 bd
       -0.058618017 -0.045570835 -0.034120925 -0.039504405
000080 16 2f 91 3c 7b de 86 bc d1 d7 98 ba c0 af 35 bd
       0.017722648 -0.016463509 -0.0011660998 -0.04435706
000090 c9 30 24 bc 5c 1a a7 3c da a2 09 3d 3c 49 4b bc
       -0.010021397 0.020398311 0.033602573 -0.012407597
0000a0 8e b3 bb bc 51 02 3b 3d 36 5c c4 bc d8 2b 52 bc
       -0.022912767 0.045656506 -0.02396975 -0.012827836
0000b0 60 8a 21 bd
       -0.039438605

backbone.rnn.bias_hh_l0 f4 [45]
000000 b9 2d 5b 3d 9b 78 4a bd 65 3f d6 3c 82 50 7f 3c
       0.0535104 -0.049431425 0.026153276 0.015583159
000010 bd 41 09 bd 44 2d 05 bd 8d 8f c7 3c 18 9e 9f 3c
       -0.03350996 -0.03251387 0.024360443 0.019484565
000020 e9 4a a9 3c 4e 05 da 3b b6 70 c0 3c 55 13 63 3d
       0.020665603 0.0066534644 0.023491245 0.05543836
000030 3c b5 33 bc c6 0a 14 bd a0 0d 0b 3d 0d f9 60 3c
       -0.010968503 -0.036143087 0.03394854 0.013731253
000040 e8 d5 8a 3c d2 b1 4f 3d c2 2f 26 bc 0d 68 6e bd
       0.016947702 0.050706692 -0.010143222 -0.0582047
000050 44 60 96 3c ed 7e 5c bd c8 09 4a bd e9 b1 83 3a
       0.01835645 -0.053831983 -0.049325734 0.0010047528
000060 ab 41 a5 bc 08 dc f4 3c 3d 6b 41 3c 90 0e 55 bd
       -0.020172914 0.029890075 0.011805353 -0.05201584
000070 72 19 70 bd 7c a8 3a bd 08 49 0d bd 72 95 17 bd
       -0.058618017 -0.045570835 -0.034493476 -0.037007757
000080 e5 d8 d2 3c 9e e9 41 bc f9 32 9f bb bd 0f 47 bd
       0.025738189 -0.011835484 -0.0048583713 -0.048598994
000090 24 ae df 3b f7 d1 08 3d 20 e8 b2 3c 7b 25 b4 3b
       0.006826179 0.033403363 0.021839201 0.005497632
0000a0 55 a1 a9 bc b4 cd 32 3d f1 d5 c2 bc 15 59 08 bd
       -0.020706812 0.043653205 -0.023783656 -0.03328808
0000b0 db 13 29 bd
       -0.0412787

backbone.fc_out.weight f4 [2, 21]
000000 f5 17 6e be 36 09 ac be df df c5 bd 58 2e f0 3d
       -0.23251326 -0.33600777 -0.09661841 0.11727589
000010 1b 63 be 3d 07 45 f0 3e 31 1a b0 3e 0b be 57 be
       0.092962466 0.46927664 0.34394982 -0.2106859
000020 f4 0b a7 3e 93 84 b7 be 95 ce 10 be 42 c2 b7 3e
       0.32626307 -0.35843334 -0.14141305 0.35890394
000030 b4 be ac be 5d 2a dd bd d2 e9 cd be 6a 2c 8e 3e
       -0.33739245 -0.10799096 -0.40217453 0.2776826
000040 ba 4b a1 3e 07 ce f4 3e ad ff 0e be 3e d8 d6 be
       0.31503087 0.47813436 -0.1396472 -0.41961855
000050 74 cd 99 3e 1c 49 9d be 38 ba 4b be 4f 26 e6 be
       0.3003956 -0.3071984 -0.19895256 -0.44951102
000060 ae 5b d5 3e 6c 6c 95 bd f9 99 57 3d 72 a4 8a 3d
       0.4167151 -0.072960705 0.052637074 0.06769647
000070 0d 1f f3 3d 6d 6e 77 be bf ec 0a 3f 9c d5 f9 be
       0.11871157 -0.24163218 0.54267496 -0.48795784
000080 02 0d b2 bd 13 95 a7 be 48 9c c5 be 6f 3c 83 3e
       -0.08693887 -0.32730922 -0.38595796 0.25632045
000090 c4 a2 b1 3e 60 de 64 3e 75 bb 02 3e bf 1a a1 3e
       0.34694493 0.22350454 0.12766822 0.31465718
0000a0 b9 53 7f 3e df 78 36 be
       0.24934281 -0.17819546

backbone.fc_out.bias f4 [2]
000000 d1 0b b9 3b 22 ea bb bc
       0.0056471606 -0.022938792

backbone.fc_hid.weight f4 [15, 15]
000000 c4 6e 7e be 47 fb 2b 3e dc 9c d4 3e 1d 69 d0 3e
       -0.24846941 0.16795073 0.41525924 0.40705195
000010 3a 45 79 bc 2d 4b 27 3f ef 89 fc be b7 a6 94 3e
       -0.015214259 0.65349084 -0.49323985 0.29033443
000020 34 3b 0c 3f 40 17 b0 3d 36 d6 c4 3e b4 70 08 3f
       0.54777837 0.085981846 0.3844468 0.5329697
000030 a3 d8 ee be 36 a4 bd 3e 08 7f a2 3e f3 92 ab 3e
       -0.46649656 0.37039346 0.31737542 0.3351055
000040 35 de 88 3e 2a 9a ca 3e b9 7f 49 3e 58 f8 a8 3e
       0.2673203 0.39570743 0.19677629 0.3300197
000050 61 04 0f bf 9a aa 18 bf 0c e9 b7 3e f9 e1 24 3f
       -0.55866057 -0.5963532 0.35919988 0.64407307
000060 54 1a 17 be 8f c2 db 3e c9 0b 4b bd d2 a0 ac 3e
       -0.14756137 0.42921874 -0.049571786 0.33716446
000070 10 62 ab bd 0e 9c a3 3e aa 54 9a be f5 ee 08 bf
       -0.08368313 0.31954998 -0.3014272 -0.5348962
000080 f8 82 bb 3e 28 cc 93 be 4b 1d 00 3f 50 88 a1 3d
       0.3662336 -0.28866696 0.500447 0.07887328
000090 97 8f 99 be f8 c6 14 3f f4 b0 15 3f ea ef a7 be
       -0.29992363 0.581161 0.58473134 -0.32800227
0000a0 1c e2 9f 3e b7 34 16 3e 27 c3 c3 be 60 ab 99 3d
       0.31227195 0.14668547 -0.38234827 0.0750339
0000b0 2d d3 03 bf 5d 2e cd 3c 18 08 04 bf f5 cd fa 3e
       -0.51494104 0.025046522 -0.5157485 0.48985258
0000c0 02 a3 ad 3e 7f 24 09 3f 82 20 b8 3d d4 5e 5d be
       0.33913428 0.53571314 0.089905754 -0.21618205
0000d0 f2 b5 90 3e 85 21 90 3e 81 d2 8d 3e 70 8d e5 bd
       0.28263813 0.28150573 0.27699664 -0.11208618
0000e0 58 a1 2b 3f 70 3d df be e5 3e 01 bf a9 cd fc 3d
       0.67043066 -0.4360156 -0.50486594 0.12343914
0000f0 ac 5e 07 3f 68 37 d8 3d 49 ad 17 be cc 88 0e bf
       0.5287883 0.10557443 -0.14812197 -0.55677485
000100 15 dd ea 3e be 76 27 bf 48 2c 90 be 93 a7 a3 3e
       0.45871797 -0.6541556 -0.28158784 0.31963786
000110 14 12 c4 be e1 1c e8 be cc cb 8a be 25 bb 8a 3e
       -0.38295043 -0.45334533 -0.2710861 0.27095905
000120 c4 9c 9f be 9a 40 c2 bd 1d 01 29 be d7 0d c6 3e
       -0.3117429 -0.09484978 -0.16504331 0.38682434
000130 ab f0 03 3f 99 4a 84 3b 00 2f 3f 3d 7e 9a 0f bd
       0.51539105 0.004037213 0.046675682 -0.035059445
000140 4d bb b1 3e 44 77 d6 3e 7e b1 45 3e 76 79 db 3e
       0.34713212 0.41887867 0.19305989 0.42866105
000150 be 34 22 be 52 1b 76 3c 65 78 f9 be c8 5b 85 3e
       -0.15840432 0.015021162 -0.48724666 0.26046586
000160 7d 41 95 be ea f3 64 bd 4a 3d 24 bf 38 9f 8c 3d
       -0.29151526 -0.055896677 -0.6415602 0.06866306
000170 d5 10 35 3e bb e1 ca 3e 07 01 d0 bd f7 79 28 bc
       0.17682202 0.39625344 -0.10156446 -0.010282985
000180 7a da 1f 3f 27 bf 17 bd 77 5d e0 3e bc c4 0e 3f
       0.62442744 -0.03704753 0.43821308 0.5576894
000190 3b 3f 15 3f 19 3a 8c 3e cc 97 ba 3e d7 85 21 3f
       0.5829961 0.27388075 0.36443937 0.6309485
0001a0 88 ac f2 bd 94 62 f4 3e 2b 59 94 be 8b b1 7e be
       -0.11849314 0.4773146 -0.2897428 -0.24872415
0001b0 f8 04 99 3e bd c6 d0 be c1 cb 59 be d5 6a 3f bc
       0.29886603 -0.40776625 -0.21269132 -0.011683186
0001c0 ee ab af 3d 10 86 b0 3d a2 f9 45 bd 80 7a 1e 3e
       0.08577715 0.086193204 -0.04833377 0.15476418
0001d0 50 93 26 3f 53 96 39 be 81 34 9f 3e 8c 4e 3c 3e
       0.6506853 -0.1812375 0.31094745 0.18389338
0001e0 94 53 e4 3e f3 87 f6 3e 57 a6 c7 bd 35 bb f8 bd
       0.44595015 0.48150596 -0.09748524 -0.12145082
0001f0 33 e3 62 be 40 d2 1e be 59 cd 96 be 30 c2 20 be
       -0.22156982 -0.15509892 -0.29453543 -0.15699077
000200 8f f7 b3 3e f7 c8 27 3e 7f 71 80 be 5c c4 b4 3e
       0.3514981 0.16385256 -0.2508659 0.3530606
000210 7d a6 0a 3d d4 8c 83 3d 06 12 8a 3e 71 53 d4 be
       0.03385018 0.06423345 0.26966876 -0.4146991
000220 1c ac 0e bd 86 41 e4 3e 21 20 e0 3e 82 1a ca 3e
       -0.034832105 0.4458124 0.43774512 0.3947335
000230 28 8e 06 be 11 44 ec 3d 4d 3f d2 3e dc a5 33 3e
       -0.13140166 0.1153642 0.4106392 0.17543739
000240 fa 3c 97 3e 02 8d 86 3e 50 ea a4 3e 1b 21 8c 3e
       0.2953871 0.26279455 0.32210016 0.27369007
000250 08 7b f1 be 79 85 1b bf 80 1f 2b bf cc 17 05 3f
       -0.47164178 -0.6075054 -0.6684494 0.51989436
000260 34 90 a4 be 41 76 05 bf e8 1b c0 3d 8f a8 15 be
       -0.32141268 -0.52133566 0.09380323 -0.14615081
000270 a6 85 46 3e d4 a6 41 be 05 d3 ef 3e 70 87 1c bf
       0.1938692 -0.18911296 0.46840683 -0.6114416
000280 5c 00 1c bf ac 33 04 3f aa 40 90 be 4e 6d 0a 3e
       -0.6093805 0.51641345 -0.28174335 0.13518259
000290 04 c7 6b 3e d8 86 ff 3d a3 8f d1 be 5b 7c 4f 3d
       0.23025137 0.12476891 -0.409299 0.050655704
0002a0 d3 eb cc be 62 1b 08 3f 47 18 f3 3d 2a e7 e2 3e
       -0.4002367 0.5316678 0.11869865 0.4431699
0002b0 dd 1b ef 3e 67 b8 8e 3e ab df 65 3e 98 21 c2 3e
       0.46700945 0.27875063 0.22448604 0.37916255
0002c0 3a 73 c5 be 5b f4 ea 3e a1 c9 ed bd 44 91 f2 3e
       -0.38564473 0.45889553 -0.11610723 0.47376454
0002d0 00 d6 29 3b 47 d0 af 3e 7b 30 fd 3e 0c 05 bf 3d
       0.0025914907 0.3433859 0.4945105 0.093271345
0002e0 57 f7 2b be f8 f4 96 3e 3b af 29 bf f0 93 62 bd
       -0.16793571 0.2948377 -0.66283005 -0.055316865
0002f0 1b 03 1a be 8c 93 d9 be df 32 3b bd 40 2e fb 3d
       -0.15040247 -0.42495382 -0.04570281 0.12264681
000300 fc 94 13 bf fc 4e f1 3e a1 97 c7 3e 56 4c 19 3f
       -0.5764921 0.47130573 0.3898287 0.59882104
000310 51 53 82 be b4 e5 d6 be 30 3a ba 3e 36 09 1c 3f
       -0.2545419 -0.41972125 0.3637252 0.60951555
000320 3e f9 c4 be 4b 40 d0 be 2d 5d 8d bd b3 44 05 3f
       -0.38471407 -0.40674052 -0.069025375 0.5205795
000330 ec 59 cc bd 94 89 14 bf 33 e9 94 be c0 ba c0 be
       -0.09978089 -0.5802243 -0.29084167 -0.3764248
000340 52 67 f1 3e 02 d5 de be ef d7 00 3f 81 fe 64 3e
       0.4714914 -0.43521887 0.5032949 0.2236271
000350 92 8f 76 bd 90 9f 1a be 40 32 a5 3e ba aa aa be
       -0.060195513 -0.15099931 0.322649 -0.3333338
000360 ab 81 80 be 6a c9 13 3f 23 18 6b be f7 82 b8 3d
       -0.2509893 0.5772921 -0.22958426 0.090093546
000370 28 fc f6 3e 6a c5 f4 be 5e 2a 0c 3e 9e f6 95 bc
       0.48239255 -0.47806865 0.13688037 -0.018306073
000380 6e de 9a be
       -0.30247825

backbone.fc_hid.bias f4 [15]
000000 e6 44 96 bc d0 e2 58 bb bc ee ab bc d7 ee c9 3c
       -0.0183434 -0.0033094175 -0.02098786 0.02465002
000010 e7 d3 cb 3c 16 46 1b bd 13 66 e8 3c 5b 26 c4 bc
       0.024881316 -0.037908636 0.028368985 -0.02394407
000020 d0 ba 12 bd 5d da 31 3d 88 80 dd 3c e9 c5 a3 bc
       -0.03582269 0.043421138 0.027038828 -0.019991832
000030 18 3e d3 bc 1f 23 2b 3c 79 d4 a8 bc
       -0.025786445 0.010445385 -0.020609127
