ILA_DPD/dpd_model.pth (torch, 44333 bytes, 6 tensors)

net.0.weight f4 [128, 14]
0.14892451 -0.044641886 -0.040185027 0.09629045 0.1037294 0.06462061 -0.15269448 -0.26739892
0.031205738 -0.16378507 -0.0867035 0.2575984 0.07838246 0.1802514 -0.12576142 0.2672895
-0.25373542 0.03399304 0.17902862 -0.15473497 0.23619421 -0.2696638 0.12339112 0.11523926
0.030447815 0.036283713 0.1372741 0.06510207 0.115331 0.22712563 -0.19316234 0.23976482
-0.24662142 -0.15779097 -0.02571077 0.18942857 -0.2291897 -0.2289253 0.23154883 0.05771756
-0.16111897 0.1602727 0.21907341 0.051968463 0.26012015 -0.2118478 -0.2375819 -0.10216875
0.15520903 -0.024805678 0.19011167 -0.16635332 -0.04849489 -0.23218398 0.17322026 0.044942144
0.09921182 0.235689 -0.147469 -0.13481274 -0.2112444 -0.04728802 0.2102633 0.18276365
-0.035552062 -0.11126473 -0.11697348 -0.09987708 0.14934148 0.1757177 -0.06756549 0.036287505
0.19129169 -0.036093485 0.052933503 0.33275774 0.21050118 -0.23338845 -0.10371193 0.028840069
0.07013545 -0.16275178 -0.02134325 0.09627752 -0.12325779 0.17944238 -0.11697803 0.1317091
-0.033685464 0.2644643 0.17250876 -0.095009506 -0.053148936 -0.117039144 -0.068028055 -0.03271744
-0.09556976 -0.040348202 0.29898486 0.0759221 -0.15398651 -0.13310823 0.22345226 -0.27202362
0.12959702 -0.27665368 0.10111643 0.014210807 -0.19748488 0.100039184 -0.14250529 0.06742484
0.12863132 -0.26000428 0.005294569 0.24681704 -0.16184007 0.19352187 0.14941105 0.27461496
0.14842923 -0.21411099 -0.25872868 0.19159532 -0.005253262 -0.25271156 0.16169685 -0.21798101
0.11629633 -0.034124028 0.17142147 0.2513406 -0.122632936 0.23498122 -0.008999427 0.2680479
0.060161892 -0.06849894 -0.17535548 0.11233733 0.08143155 0.23774187 0.21401255 -0.12786864
0.23982471 -0.11597793 0.18482725 0.26999286 0.09209684 0.07958708 0.22578794 -0.008342699
-0.16621497 -0.10904603 -0.014886908 -0.033498835 -0.022571025 0.24553283 -0.256882 -0.17273943
-0.122862406 -0.22535984 -0.10437262 0.05571942 0.2737133 -0.10830999 0.29034677 0.023867138
-0.13605212 -0.14894359 0.11568736 0.17739497 -0.23260114 0.023745514 -0.09787544 -0.2513599
0.06581507 0.23964997 -0.18249124 0.13933934 0.19254349 -0.04186969 0.21392496 -0.22350937
0.07065174 0.052435234 0.21100223 -0.24923448 0.073031574 0.019048799 0.13288192 -0.013955717
-0.2959585 -0.0828776 -0.014890789 0.11502361 0.07725105 -0.17782469 -0.05554995 0.059557486
0.058940765 -0.15403534 -0.21109279 0.1990861 0.083843276 0.14441183 0.05939397 -0.1451651
0.07013052 0.08717825 0.21994965 0.009431448 -0.06482434 -0.19252703 0.1373347 0.03327848
-0.19855292 -0.282292 0.22229883 0.08787882 0.1069527 -0.14841032 0.06060462 0.051897354
0.15487537 -0.06848724 0.064460166 0.23372555 0.17183138 0.14956324 0.22610417 0.10989358
0.14972797 -0.13767041 0.26688215 0.24566326 0.22498661 -0.052998602 -0.13171186 -0.020482391
0.08782798 0.13580383 0.22270977 -0.117828906 0.17386547 0.051244903 -0.052217253 -0.09639043
-0.2168233 0.27694523 0.09793552 0.06066825 0.21009272 -0.041606832 0.10051522 -0.038601257
00000000: ab7f 183e 69da 36bd 0e99 24bd ed33 c53d
00000010: 1470 d43d cf57 843d f15b 1cbe 83e8 88be
00000020: 2da3 ff3c 46b7 27be 9b91 b1bd f0e3 833e
00000030: fc86 a03d d393 383e 9ac7 00be 2bda 883e
00000040: 9ce9 81be 493c 0b3d 4753 373e d872 1ebe
00000050: e5dc 713e 6011 8abe 7cb4 fc3d 9002 ec3d
00000060: b26d f93c 3b9e 143d 9591 0c3e 3c54 853d
00000070: a932 ec3d 9f93 683e 59cc 45be e984 753e
00000080: 538a 7cbe f593 21be 659f d2bc 90f9 413e
00000090: b4b0 6abe 656b 6abe 231b 6d3e 4069 6c3d
000000a0: 5ffc 24be 871e 243e c854 603e e2dc 543d
000000b0: 782e 853e a1ee 58be ab48 73be d93d d1bd
000000c0: 1eef 1e3e 4735 cbbc a2ac 423e 8658 2abe
000000d0: 94a2 46bd a3c1 6dbe a760 313e 4115 383d
000000e0: 912f cb3d 7558 713e 1d02 17be 5a0c 0abe
000000f0: 7450 58be 15b1 41bd 434f 573e 6526 3b3e
00000100: 0a9f 11bd c3de e3bd cb8f efbd 5b8c ccbd
00000110: f9ec 183e 57ef 333e c75f 8abd 35a2 143d
00000120: f8e1 433e c3d6 13bd cdd0 583d 395f aa3e
00000130: 9f8d 573e 62fd 6ebe ec66 d4bd 0242 ec3c
00000140: 2da3 8f3d 67a8 26be 0ad8 aebc 262d c53d
00000150: 956e fcbd bebf 373e 2d92 efbd c0de 063e
00000160: c5f9 09bd dd67 873e 23a6 303e 5894 c2bd
00000170: b3b2 59bd 38b2 efbd 4b52 8bbd b902 06bd
00000180: 14ba c3bd 2844 25bd 8b14 993e 0c7d 9b3d
00000190: a4ae 1dbe 864d 08be abd0 643e ae46 8bbe
000001a0: 15b5 043e 8da5 8dbe 2116 cf3d 72d4 683c
000001b0: 7a39 4abe 58e1 cc3d e8ec 11be 0916 8a3d
000001c0: eeb7 033e 481f 85be 107e ad3b 9bbd 7c3e
000001d0: 67b9 25be 992a 463e 36ff 183e 559a 8c3e
000001e0: d5fd 173e e93f 5bbe 1678 84be 9031 443e
000001f0: 8e23 acbb 6963 81be dc93 253e 6a36 5fbe
00000200: c52c ee3d a3c5 0bbd 1c89 2f3e b7af 803e
00000210: fa26 fbbd eb9e 703e 5572 13bc 933d 893e
00000220: 516c 763d 2c49 8cbd 6390 33be 1d11 e63d
00000230: 96c5 a63d 9b72 733e 1b26 5b3e ffef 02be
00000240: 9c94 753e d685 edbd 5b43 3d3e 813c 8a3e
00000250: 459d bc3d 8dfe a23d f434 673e d1af 08bc
00000260: 4234 2abe 8653 dfbd 38e8 73bc 1336 09bd
00000270: dfe6 b8bc f56c 7b3e 0a86 83be 9be2 30be
00000280: 499f fbbd bbc4 66be 50c1 d5bd 0c3a 643d
00000290: 2624 8c3e a1d1 ddbd 55a8 943e 0485 c33c
000002a0: 3f51 0bbe ab84 18be 7fed ec3d 07a7 353e
000002b0: fe2e 6ebe f485 c23c eb72 c8bd 3fb2 80be
000002c0: 0dca 863d cd66 753e fcde 3abe f9ae 0e3e
000002d0: 1f2a 453e 8d7f 2bbd 250f 5b3e a4df 64be
000002e0: dcb1 903d 54c6 563d f810 583e 5337 7fbe
000002f0: 9491 953d 3a0c 9c3c 3312 083e 85a6 64bc
00000300: df87 97be bbbb a9bd 7ff8 73bc 8091 eb3d
00000310: cc35 9e3d ad17 36be 5888 63bd 8df2 733d
00000320: df6b 713d 71bb 1dbe b528 58be 3add 4b3e
00000330: 06b6 ab3d b2e0 133e 1747 733d 29a6 14be
00000340: 97a0 8f3d 838a b23d 7b3a 613e 5c86 1a3c
00000350: a0c2 84bd ce25 45be 78a1 0c3e 044f 083d
00000360: 7551 4bbe 9488 90be 4ea2 633e d0f9 b33d
00000370: 040a db3d e0f8 17be 8d3c 783d 5292 543d
00000380: a697 1e3e 0a43 8cbd b103 843d c055 6f3e
00000390: 91f4 2f3e 1b27 193e da87 673e e30f e13d
000003a0: 4a52 193e 79f9 0cbe c7a4 883e 268f 7b3e
000003b0: e462 663e 1015 59bd 79df 06be b0ca a7bc
000003c0: 28df b33d 2910 0b3e 080e 643e 4850 f1bd
000003d0: ca09 323e 2de6 513d c2e1 55bd 5968 c5bd
000003e0: ed06 5ebe c4cb 8d3e 6b92 c83d 457f 783d
000003f0: 8c22 573e ed6b 2abd ecda cd3d 5a1c 1ebd

net.0.bias f4 [128]
0.1960317 0.14435323 -0.23317 -0.14098802 0.13001639 0.13417064 0.12961294 -0.21523659
0.056629 -0.19388035 -0.11355403 0.2011916 0.20404263 0.048481364 0.068988174 -0.03722172
0.040247038 -0.10242998 -0.14318901 0.18806492 -0.13986799 -0.014519648 0.23467067 0.040541746
-0.21140383 0.050309557 0.033512454 -0.19696078 -0.20148563 0.21443887 0.24328655 0.29011902
0.004197746 0.012118807 0.1736634 0.11274127 -0.16415937 -0.18662903 -0.07188554 0.051859196
0.14933392 0.26671997 0.2917694 -0.17471348 -0.028037414 0.019394612 0.15692677 0.20273957
-0.13730186 -0.13890345 0.054486506 0.20736627 0.041693743 -0.103747085 0.15443039 0.24490517
0.26087186 -3.3064002e-06 -0.10952274 0.021279937 0.23453292 0.007504647 0.11275284 0.2825015
-0.06329004 -0.2281496 -0.16091673 0.0039790557 0.18081331 0.14543736 0.15798143 0.16837218
-0.1900256 0.14227515 -0.2522276 0.030445546 -0.030914098 -0.13819195 -0.022744011 -0.03452345
0.024169907 -0.1668878 0.206084 -0.047641627 0.121111736 -0.12961219 -0.10657601 0.15966032
-0.12096525 -0.013412607 0.0005733903 -0.018642126 -0.2359868 0.11690881 -0.0060002655 -0.2210818
0.25007915 0.037815243 0.2028101 0.26833788 0.23746955 0.1958405 -0.0072962455 -0.1924813
0.05204412 0.07319301 0.3061494 0.20303164 -0.05558769 0.024353135 0.21397038 0.2687656
0.2530271 0.035911463 0.15643062 -0.047707826 -0.017454995 0.19880886 0.037007384 0.019326758
0.16808467 0.11815159 0.06794606 -0.065173015 0.23667021 -0.07124604 -0.18383786 0.26480493
00000000: 89bc 483e 55d1 133e 1ec4 6ebe 2a5f 10be
00000010: 0423 053e 0764 093e 41b9 043e fb66 5cbe
00000020: cff3 673d 9288 46be 048f e8bd 2c05 4e3e
00000030: 8df0 503e 6594 463d ac49 8d3d cd75 18bd
00000040: 14da 243d cfc6 d1bd 24a0 12be 1794 403e
00000050: 8e39 0fbe d1e3 6dbc 824d 703e 1a0f 263d
00000060: 3f7a 58be 6511 4e3d 5b44 093d 16b0 49be
00000070: 4052 4ebe dd95 5b3e 1c20 793e 7b8a 943e
00000080: 3f8d 893b f68d 463c d1d4 313e e5e4 e63d
00000090: 6519 28be ae1b 3fbe ba38 93bd 4f6a 543d
000000a0: feea 183e 858f 883e cc62 953e 17e8 32be
000000b0: b8ae e5bc 73e1 9e3c 69b1 203e f69a 4f3e
000000c0: dc98 0cbe b53c 0ebe 3e2d 5f3d d357 543e
000000d0: 0fc7 2a3d 5a79 d4bd 0023 1e3e 6cc8 7a3e
000000e0: ff90 853e 86e3 5db6 754d e0bd 4353 ae3c
000000f0: 6629 703e 8be9 f53b f6ea e63d 09a4 903e
00000100: 359e 81bd 0ca0 69be 5bc7 24be bd62 823b
00000110: 2027 393e 88ed 143e e2c5 213e c269 2c3e
00000120: 1296 42be 94b0 113e fa23 81be f068 f93c
00000130: 903f fdbc 3182 0dbe a651 babc 7668 0dbd
00000140: f8ff c53c a3e4 2abe af07 533e de23 43bd
00000150: 6e09 f83d 0fb9 04be 8644 dabd ff7d 233e
00000160: a1bc f7bd 8dc0 5bbc 924f 163a 5fb7 98bc
00000170: 86a6 71be e36d ef3d e09d c4bb 4463 62be
00000180: 600a 803e 28e4 1a3d 73ad 4f3e 9563 893e
00000190: 382b 733e 698a 483e 5815 efbb d119 45be
000001a0: 372c 553d 38e6 953d 9dbf 9c3e 87e7 4f3e
000001b0: ebaf 63bd 3a80 c73c 0d1b 5b3e a59b 893e
000001c0: c58c 813e e617 133d 592f 203e 4869 43bd
000001d0: c7fd 8ebc 8d94 4b3e 0e95 173d 2653 9e3c
000001e0: 631e 2c3e 76f9 f13d 4e27 8b3d 6e79 85bd
000001f0: ad59 723e 72e9 91bd fe3f 3cbe 8394 873e

net.2.weight f4 [64, 128]
0.030598732 -0.02442677 0.03945425 -0.016890934 0.060925197 -0.014785059 0.001460606 -0.025319789
0.08310517 0.045028687 -0.0082554035 0.039052762 -0.113380596 -0.025260111 0.059329398 -0.023517415
0.091347024 0.062048107 -0.008343334 0.0087093 0.10631899 0.048222017 0.056133922 -0.08637771
-0.0056175375 0.074117355 0.07470455 -0.05115913 0.05268762 -0.041394226 -0.03339585 0.0024110095
-0.12094313 0.058148444 0.091805235 0.055189535 -0.025887556 0.07477276 0.026360312 -0.05155175
-0.011847036 -0.028904423 0.00055197044 0.05209524 -0.051357735 0.029537806 -0.10103956 0.021138638
-0.023482045 -0.034585916 0.061431725 0.09073068 0.0050422912 0.021374902 -0.040184177 0.005704709
-0.047625117 -0.011241338 -0.07406052 0.062309034 -0.028609524 0.03243408 0.016595896 -0.041100267
-0.017177515 0.074260645 -0.0943494 0.025122568 0.084126495 0.0055843014 -0.057201594 0.04426411
-0.07436061 -0.03636511 -0.051118024 -0.025601057 0.13314962 0.007393006 0.056236386 -0.11152115
0.017913256 -0.0045908857 0.011744068 -0.026588762 -0.0718079 0.039320458 0.061715744 0.0044216653
-0.06287179 0.11673386 0.055158556 -0.053558085 0.09942246 -0.052013114 0.08958701 0.1090172
0.031415474 -0.03456165 -0.06005461 -0.0049283523 -0.027764717 0.06665895 0.0064932257 0.0878495
0.07708052 0.06667489 0.0008816143 -0.056071322 -0.08262991 -0.0616127 0.0053104567 0.020893835
-0.04725576 0.04211874 0.107630596 0.061007388 -0.03513971 0.094934896 -0.04011222 -0.004530537
0.0692698 -0.0074942037 -0.0088851405 -0.030040504 -0.005170023 -0.007988212 0.03152453 0.029059814
0.073250026 -0.04439989 -0.054681048 0.10659722 0.016617006 -0.016609684 0.084319875 0.066081904
0.007320689 -0.0788118 0.018413994 0.061796185 0.060629204 0.122619994 -0.027610138 0.04567551
-0.030079829 -0.052679878 0.11662844 -0.042218544 0.111697234 0.03909563 0.040832613 0.023020068
0.066924594 0.036276698 0.08155535 0.045227587 -0.013628694 -0.08081584 0.03966094 0.076866284
0.056962263 0.10272614 -0.045488723 -0.022293275 0.09711035 0.009585701 0.048182108 0.03761061
-0.08556796 0.08216063 0.09557439 0.09868114 0.06791992 0.0114712715 -0.0034124968 -0.040992953
0.05590988 -0.030060943 0.024441704 -0.013452287 -0.034984056 -0.067645125 -0.112653665 0.029945169
0.08944809 0.030198015 -0.07376275 0.044557896 0.093705386 -0.021548862 -0.038499963 0.030585896
0.018598279 -0.05276793 -0.06362106 0.078188896 0.052737866 0.025879499 0.038569015 -0.039061453
0.012775631 0.047215924 0.017215328 -0.013775627 -0.011349373 0.04626971 0.006406573 0.01080372
0.0046187816 0.047627352 0.045161862 0.0887651 0.006879672 0.03771117 0.010948867 0.016976673
0.0971302 0.0071015637 0.10500261 0.02846832 0.03260067 0.014161484 0.0051579284 -0.033686575
-0.04252254 0.062586024 -0.06177089 0.045541275 0.11302508 -0.047181353 0.033732254 0.016221419
0.07271167 -0.03667348 -0.055241257 0.02696795 -0.04329617 0.023630675 0.06682772 -0.01935144
-0.038627014 -0.04813115 0.03691655 0.06083403 0.014983798 -0.10961789 0.012012292 0.07881635
0.019178873 0.09097146 0.1012867 0.019132761 0.045828655 0.062565565 -0.015948039 0.075809576
00000000: 31aa fa3c a61a c8bc c89a 213d db5e 8abc
00000010: b38c 793d 083d 72bc ce71 bf3a 726b cfbc
00000020: 0b33 aa3d 0070 383d ac41 07bc caf5 1f3d
00000030: 1634 e8bd 4bee cebc 6203 733d 98a7 c0bc
00000040: 2614 bb3d 2826 7e3d 7bb2 08bc 74b1 0e3c
00000050: c5bd d93d 7384 453d afec 653d cce6 b0bd
00000060: 5213 b8bb d7ca 973d b3fe 983d 3c8c 51bd
00000070: f9ce 573d fe8c 29bd 16ca 08bd 0702 1e3b
00000080: 08b1 f7bd 102d 6e3d 6204 bc3d 6c0e 623d
00000090: 2412 d4bc 7622 993d 95f1 d73c ee27 53bd
000000a0: 121a 42bc f8c8 ecbc 1cb2 103a d261 553d
000000b0: 7d5c 52bd 45f9 f13c d4ed cebd f02a ad3c
000000c0: 6b5d c0bc f6a9 0dbd d59f 7b3d 02d1 b93d
000000d0: ce39 a53b 6b1a af3c 2a98 24bd 91ee ba3b
000000e0: 8e12 43bd 972d 38bc 0bad 97bd c237 7f3d
000000f0: 855e eabc 99d9 043d 1ef4 873c c158 28bd
00000100: dcb7 8cbc f715 983d 423a c1bd d8cd cd3c
00000110: 834a ac3d 84fc b63b 384c 6abd 494e 353d
00000120: 604a 98bd 95f3 14bd 2261 51bd 4fb9 d1bc
00000130: 6058 083e 0741 f23b 2058 663d 3365 e4bd
00000140: d2be 923c 246f 96bb 316a 403c add0 d9bc
00000150: 0510 93bd 7d0e 213d a6c9 7c3d 9ee3 903b
00000160: edc2 80bd 2912 ef3d f0ed 613d b95f 5bbd
00000170: 019e cb3d b40b 55bd 6579 b73d 6944 df3d
00000180: 83ad 003d 8490 0dbd d3fb 75bd 047e a1bb
00000190: d572 e3bc 7d84 883d 20c5 d43b 70ea b33d
000001a0: 64dc 9d3d d88c 883d 221c 673a 0bab 65bd
000001b0: df39 a9bd 995d 7cbd 5703 ae3b 8c29 ab3c
000001c0: 418f 41bd b384 2c3d 6e6d dc3d e2e2 793d
000001d0: a8ee 0fbd 3a6d c23d b64c 24bd e674 94bb
000001e0: 53dd 8d3d f091 f5bb fb92 11bc 8117 f6bc
000001f0: 4c69 a9bb fde0 02bc de1f 013d d90e ee3c
00000200: 1c04 963d a9dc 35bd 3cf9 5fbd a54f da3d
00000210: 6320 883c 0811 88bc e6af ac3d f355 873d
00000220: 64e2 ef3b 1568 a1bd f2d8 963c ff1d 7d3d
00000230: 5456 783d 3120 fb3d a82e e2bc 3e16 3b3d
00000240: f969 f6bc dbc6 57bd e4da ee3d 5aed 2cbd
00000250: 85c1 e43d bd22 203d 1940 273d 9594 bc3c
00000260: c30f 893d e096 143d 7e06 a73d 9040 393d
00000270: e34a 5fbc c682 a5bd 8373 223d 126c 9d3d
00000280: 4351 693d 1562 d23d 6252 3abd 63a0 b6bc
00000290: cbe1 c63d 580d 1d3c 9a5a 453d 950d 1a3d
000002a0: 413e afbd d543 a83d 81bc c33d 5619 ca3d
000002b0: 9919 8b3d 00f2 3b3c 32a4 5fbb 3ae8 27bd
000002c0: c201 653d 5e42 f6bc f839 c83c fb66 5cbc
000002d0: 714b 0fbd 8789 8abd f7b6 e6bd 924f f53c
000002e0: 8f30 b73d d461 f73c ed10 97bd 5782 363d
000002f0: 9ce8 bf3d 3d87 b0bc 23b2 1dbd 468f fa3c
00000300: 6b5b 983c 2f23 58bd c24b 82bd 8021 a03d
00000310: a903 583d 3e01 d43c 8bfa 1d3d e7fe 1fbd
00000320: e150 513c 7c65 413d 2907 8d3c 2bb3 61bc
00000330: b8f2 39bc 4f85 3d3d 3bee d13b 1602 313c
00000340: 2659 973b e614 433d a5fb 383d 7aca b53d
00000350: df6e e13b 0777 1a3d e062 333c aa12 8b3c
00000360: 33ec c63d 3cb4 e83b 9c0b d73d 6536 e93c
00000370: 4888 053d 9205 683c d703 a93b effa 09bd
00000380: 1d2c 2ebd 1a2d 803d 7903 7dbd 7d89 3a3d
00000390: b179 e73d 3c41 41bd d52a 0a3d c8e2 843c
000003a0: dbe9 943d ee36 16bd a844 62bd e4eb dc3c
000003b0: 5357 31bd 1e95 c13c f9dc 883d e986 9ebc
000003c0: 5c37 1ebd 2b25 45bd cf35 173d 1b2d 793d
000003d0: 9b7e 753c 587f e0bd 34cf 443c 776a a13d
000003e0: 031d 9d3c 3f4f ba3d 676f cf3d 4fbc 9c3c
000003f0: d4b6 3b3d 6022 803d 76a5 82bc 0d42 9b3d

net.2.bias f4 [64]
0.07872833 -0.035574578 0.01339321 -0.053474076 -0.06423094 -0.031738866 0.019525018 -0.008767243
0.04123392 0.047712054 -0.00072364096 -0.03459811 -0.025009299 -0.0039822315 0.115863405 -0.08058176
0.088711224 -0.011470833 0.042743407 -0.01772987 0.042878136 0.101300515 0.089290425 -0.06863728
-0.07210782 0.05862283 0.049162313 0.0072713783 -0.032462195 0.018863842 -0.033799864 0.044022482
0.07608546 -0.023362406 -0.0014693564 0.060387004 0.007796093 0.03861689 0.05996191 -0.026811143
-0.0034619852 0.02537727 -0.0069458247 0.06616744 0.10877805 0.07590284 0.019623723 0.06321888
0.08084741 0.10230167 0.0013968654 0.10332172 -0.08726826 -0.04722185 -0.013271593 0.010859116
-0.06530354 0.04283424 0.04360678 0.016301205 -0.033308607 0.07075856 0.032195676 0.049751356
00000000: 523c a13d a6b6 11bd 326f 5b3c a207 5bbd
00000010: 838b 83bd 9d00 02bd eef2 9f3c 7ba4 0fbc
00000020: e6e4 283d b76d 433d b9b2 3dba bfb6 0dbd
00000030: 4de0 ccbc 617d 82bb cb49 ed3d 0d08 a5bd
00000040: 3bae b53d 29f0 3bbc b613 2f3d 3b3e 91bc
00000050: fca0 2f3d a576 cf3d e6dd b63d b491 8cbd
00000060: 44ad 93bd 7e1e 703d 6c5e 493d be44 ee3b
00000070: 14f7 04bd 5888 9a3c ba71 0abd eb50 343d
00000080: b2d2 9b3d 8462 bfbc 6b97 c0ba 5d58 773d
00000090: 5e76 ff3b be2c 1e3d 9f9a 753d 0ba3 dbbc
000000a0: 79e2 62bb fee3 cf3c cd99 e3bb cb82 873d
000000b0: 07c7 de3d f372 9b3d eec1 a03c e678 813d
000000c0: 5493 a53d 8a83 d13d 0617 b73a 579a d33d
000000d0: b4b9 b2bd b36b 41bd 1871 59bc 6fea 313c
000000e0: ddbd 85bd f572 2f3d 069d 323d 1b8a 853c
000000f0: 9b6e 08bd dde9 903d 9ddf 033d 14c8 4b3d

net.4.weight f4 [2, 64]
-0.029133083 -0.1199613 -0.05304376 -0.06333264 -0.045433253 0.05345457 -0.015073883 0.011868453
-0.066446245 0.12676474 0.040364206 0.10719694 0.03137892 0.06604096 -0.14462964 -0.050125152
0.060508505 -0.045898985 0.13819689 -0.12136255 -0.13540883 -0.07488625 0.106489964 0.11617869
0.107564226 -0.08455111 0.006851595 -0.12740736 0.11468463 -0.017329192 -0.05049563 -0.03519736
0.011569012 -0.11164023 -0.024861017 0.07349814 -0.15058935 -0.1413707 -0.029221304 -0.08601209
0.09350568 0.086325504 0.108181305 -0.058643956 -0.05917954 0.11384635 -0.10171029 0.14476715
0.10674741 0.058695305 0.045661177 -0.09790394 -0.031324267 0.15913501 0.11010981 -0.11935277
-0.06141406 -0.06619317 -0.094957024 -0.12069337 -0.048850283 -0.0166692 0.056768995 0.12017336
0.114141695 0.015928324 -0.08432936 -0.13226917 0.106527865 0.006908111 -0.12937106 -0.117494196
0.06912477 -0.10549688 0.10772539 0.1390896 -0.06565564 0.07796524 0.017839719 -0.06153831
-0.11318994 -0.10778872 0.021088844 -0.09367798 0.049686335 -0.04458262 0.008797893 -0.030094154
0.028873023 0.10460843 -0.034733225 0.12731707 -0.14176446 0.052834395 0.119692706 0.020250266
-0.08618597 -0.073292255 0.1493947 -0.10690282 -0.05468258 -0.12887698 -0.117512725 0.13081682
-0.052952502 -0.044150226 -0.062357314 0.1517522 0.10915797 0.14031784 -0.027711943 0.026072469
0.07108414 0.11712774 -0.073045276 0.12121461 0.09180209 0.1232002 -0.10636817 0.06566246
-0.09604056 0.035785865 0.09100847 -0.10146868 0.05147377 -0.083478674 0.0239824 -0.024731424
00000000: 81a8 eebc 45ae f5bd 6a44 59bd 8bb4 81bd
00000010: 3818 3abd 2ef3 5a3d 73f8 76bc e673 423c
00000020: f814 88bd 9ece 013e f054 253d 128a db3d
00000030: 2f87 003d 7c40 873d cb19 14be 0850 4dbd
00000040: c4d7 773d 9300 3cbd 7c83 0d3e ee8c f8bd
00000050: 9da8 0abe f65d 99bd 6917 da3d 18ef ed3d
00000060: a24a dc3d 2229 adbd 5883 e03b 1377 02be
00000070: c6df ea3d f3f5 8dbc 81d4 4ebd 1b2b 10bd
00000080: f48b 3d3c a2a3 e4bd 55a9 cbbc 3186 963d
00000090: 1834 1abe 7bc3 10be 8461 efbc 1b27 b0bd
000000a0: e87f bf3d 6dcb b03d 298e dd3d a534 70bd
000000b0: 3f66 72bd 4628 e93d 7c4d d0bd d73d 143e
000000c0: 639e da3d 7d6a 703d 3707 3b3d dc81 c8bd
000000d0: e04d 00bd 4af4 223e 4181 e13d 3a6f f4bd
000000e0: 4f8d 7bbd 4990 87bd d478 c2bd 162e f7bd
000000f0: 3c17 48bd d98d 88bc 9b86 683d 731d f63d
00000100: 1fc3 e93d 1e7c 823c dfb4 acbd 9271 07be
00000110: 482b da3d 6f5d e23b d979 04be cca0 f0bd
00000120: 4a91 8d3d c00e d8bd 219f dc3d 816d 0e3e
00000130: 7776 86bd 3dac 9f3d 9a24 923c 980f 7cbd
00000140: 21d0 e7bd 55c0 dcbd 83c2 ac3c 3eda bfbd
00000150: e683 4b3d 449c 36bd 0a25 103c 0488 f6bc
00000160: 1e87 ec3c f23c d63d 6d44 0ebd 685f 023e
00000170: b42a 11be e168 583d 7321 f53d e3e3 a53c
00000180: 4582 b0bd 401a 96bd edfa 183e deef dabd
00000190: d7fa 5fbd 54f8 03be 83aa f0bd d8f4 053e
000001a0: b9e4 58bd ded6 34bd 626a 7fbd ee64 1b3e
000001b0: 378e df3d 7baf 0f3e 2804 e3bc ee95 d53c
000001c0: 9094 913d abe0 ef3d c398 95bd 5e3f f83d
000001d0: bc02 bc3d 6350 fc3d 8ed7 d9bd 0a7a 863d
000001e0: eab0 c4bd 3394 123d a662 ba3d d0ce cfbd
000001f0: 29d6 523d def6 aabd bd76 c43c 8e99 cabc

net.4.bias f4 [2]
0.0730564 -0.08744407
00000000: 989e 953d e015 b3bd
